frontend/fheapps/lola/weights/mnist.pt (torch, 344653 bytes, 3 tensors)

fc1.b f4 [100]
0.0918 0.0016 0.0917 0.0152 -0.0334 0.0933 0.0467 -0.017
-0.1362 -0.0344 0.035 -0.084 0.0073 0.055 -0.0752 -0.0356
-0.1893 -0.0338 0.0916 -0.0531 0.0281 0.1614 -0.0142 0.0585
0.0296 -0.035 -0.0452 0.0542 -0.0226 -0.2204 -0.0421 0.1394
-0.1198 -0.0396 -0.0164 -0.0901 0.0701 -0.0504 0.13 0.076
-0.0606 0.015 0.1117 0.0817 0.0498 0.0237 -0.0155 -0.1422
-0.194 -0.0266 0.0153 0.0302 0.0311 -0.0231 -0.1129 0.056
0.0297 -0.0062 -0.0368 -0.0651 -0.0767 -0.0762 -0.1381 0.1375
0.1192 -0.0198 -0.0085 0.1759 0.1761 -0.0076 -0.007 0.08
0.0088 -0.0028 0.1 -0.1095 -0.0469 0.0965 -0.0844 -0.0583
-0.1347 -0.1009 -0.0078 -0.0562 0.265 -0.1191 0.0315 -0.0698
-0.0298 0.0069 0.0009 0.1547 -0.0352 0.0552 -0.0376 -0.1761
-0.0173 0.0607 -0.0687 0.0663
00000000: a301 bc3d 17b7 d13a 36cd bb3d 6c09 793c
00000010: 70ce 08bd 1214 bf3d 8048 3f3d 9643 8bbc
00000020: 0378 0bbe 04e7 0cbd 295c 0f3d 3108 acbd
00000030: d734 ef3b ae47 613d 7502 9abd 4ed1 11bd
00000040: dcd7 41be de71 0abd c898 bb3d 637f 59bd
00000050: f931 e63c 0b46 253e 1ea7 68bc b29d 6f3d
00000060: b37b f23c 295c 0fbd a323 39bd d200 5e3d
00000070: a323 b9bc 8ab0 61be 0d71 2cbd e0be 0e3e
00000080: b459 f5bd 9c33 22bd 4b59 86bc 5986 b8bd
00000090: 9790 8f3d 3b70 4ebd b81e 053e e3a5 9b3d
000000a0: b537 78bd 8fc2 753c f8c2 e43d 5452 a73d
000000b0: 16fb 4b3d 8126 c23c b6f3 7dbc e09c 11be
000000c0: f0a7 46be 3ee8 d9bc daac 7a3c fe65 f73c
000000d0: 6dc5 fe3c 363c bdbc 1d38 e7bd 4260 653d
000000e0: 6a4d f33c 5f29 cbbb 99bb 16bd 2653 85bd
000000f0: e414 9dbd bf0e 9cbd 166a 0dbe cdcc 0c3e
00000100: 211f f43d 9c33 a2bc 9643 0bbc 211f 343e
00000110: 8f53 343e 6c09 f9bb 4260 e5bb 0ad7 a33d
00000120: e02d 103c 3480 37bb cdcc cc3d 8941 e0bd
00000130: 371a 40bd cba1 c53d e8d9 acbd fbcb 6ebd
00000140: ccee 09be a9a4 cebd 2497 ffbb f931 66bd
00000150: 14ae 873e b3ea f3bd 2506 013d 4df3 8ebd
00000160: 211f f4bc 6519 e23b faed 6b3a ad69 1e3e
00000170: e02d 10bd 6519 623d 7502 1abd 8f53 34be
00000180: bbb8 8dbc 90a0 783d 96b2 8cbd 4bc8 873d

fc2.w f4 [10, 100]
-0.05541492 -0.047068357 0.045840766 -0.045160875 0.01303316 -0.10565984 0.008675447 0.016078396
-0.07137635 -0.007026706 0.05425699 -0.00318744 -0.047812752 -0.071738414 -0.0018755328 0.008875472
0.046962626 -0.046188653 -0.012852603 -0.0043372316 -0.07360381 0.031807847 -0.024100184 0.01255575
-0.03450258 -0.008963563 0.10770879 -0.07586902 0.07492109 -0.06482779 0.009970191 -0.10115624
-0.04137222 0.081587166 -0.06349838 -0.09888364 0.020995697 -0.0041732644 0.06771762 0.067501076
-0.035289757 0.03203374 -0.07217366 -0.04472449 -0.07848325 0.011229478 0.0037280081 -0.13546206
0.11728769 -0.15730508 0.060530573 0.041037686 -0.04107396 -0.056859326 -0.015573307 -0.0029408627
-0.074698396 -0.0934489 0.032346915 -0.073930986 -0.060319804 -0.07970431 -0.10779093 -0.055136666
0.064378045 0.002253039 -0.06475351 -0.018091485 -0.094057105 -0.049519822 -0.06177214 -0.052344564
0.008064457 -0.019681426 -0.0078025726 0.008485941 -0.11439461 0.08151828 -0.0122008575 0.10562519
-0.010413 0.07833971 -0.013289517 0.008597173 -0.07871335 -0.05484549 0.051836956 -0.081884354
-0.102693744 0.007898955 -0.057349395 -0.10022007 0.05041608 -0.10270299 0.08687254 -0.08819353
-0.058042157 0.017303763 0.0019280448 0.119008325 0.01015869 -0.020962553 -0.044384833 -0.14702666
0.060322665 -0.0035494834 -0.02270272 0.051682457 -0.05860392 -0.029567612 -0.07367657 -0.041371796
-0.006306208 0.028705651 -0.018485824 -0.05656923 0.027151478 -0.13063337 -0.076001056 -0.118729115
-0.05978911 -0.024322413 -0.028593665 0.08163559 -0.06062104 -0.010311107 0.072563745 0.01735836
-0.010651712 -0.09060305 -0.06640843 -0.017767204 0.019523976 -0.07831456 0.0013323907 -0.007087091
-0.017574871 -0.075036146 -0.05604156 0.04704938 -0.06416261 0.16062108 0.062432878 -0.092080824
0.026958697 -0.11772971 -0.029250633 0.010799357 -0.011228358 -0.03748561 0.113101535 -0.0021601957
0.07189289 0.10840561 -0.023377704 -0.041294187 -0.031094514 0.032106776 -0.07946694 -0.11467187
-0.051374983 -0.01591923 -0.024164585 -0.11045511 -0.060322158 -0.12836376 -0.06763975 -0.03298615
0.042223804 -0.07057298 -0.08173957 -0.017713027 -0.0033013164 -0.1496965 -0.0039861086 -0.09471862
-0.026355237 0.14692973 -0.041564446 0.00081771443 0.02821359 0.0397606 -0.06357167 0.012119021
0.090530515 -0.08051305 -0.08728071 -0.045302823 0.05879122 -0.07392558 -0.07416666 -0.016711954
-0.06768368 -0.07592784 0.05936085 0.15697731 -0.027868489 0.022504644 0.10314198 -0.055923507
-0.05956194 0.046235505 0.059996303 0.11197281 -0.124917045 0.014773486 -0.12464695 0.0030882484
-0.006070619 0.06637441 -0.035626676 -0.17715189 0.04008755 -0.021332258 0.14907403 0.046235397
0.09012615 -0.07951534 -0.061559394 -0.11765929 0.02343949 0.063799225 -0.04700058 0.021798987
0.01779036 0.07614509 -0.034619074 -0.016607083 0.056315713 -0.059307266 0.061677907 0.047664907
0.05055878 -0.023765378 0.04359723 -0.024892468 0.07712456 -0.07122533 0.01635344 -0.16745144
0.066875465 -0.05647416 0.045542706 0.054136273 -0.0018928838 0.0011133066 -0.085696645 0.014474927
-0.07661516 -0.1118355 -0.08302502 0.08335159 -0.053836063 0.10264742 -0.004671946 -0.027114738
00000000: c1fa 62bd c0ca 40bd 87c3 3b3d 9cfa 38bd
00000010: 0989 553c 3064 d8bd 7623 0e3c d7b6 833c
00000020: c42d 92bd 4840 e6bb 943c 5e3d 5fe4 50bb
00000030: 4ed7 43bd 97eb 92bd 70d4 f5ba 6d6a 113c
00000040: e25b 403d 5030 3dbd b993 52bc 561f 8ebb
00000050: 98bd 96bd f248 023d c06d c5bc a2b6 4d3c
00000060: 9452 0dbd e8db 12bc 6d96 dc3d 3761 9bbd
00000070: 3a70 993d 6fc4 84bd 035a 233c 012b cfbd
00000080: eb75 29bd 2c17 a73d 700b 82bd 8183 cabd
00000090: 2bff ab3c e1bf 88bb 89af 8a3d 013e 8a3d
000000a0: fe8b 10bd d035 033d c9cf 93bd 0731 37bd
000000b0: d4bb a0bd d8fb 373c 9951 743b 91b6 0abe
000000c0: 8734 f03d 9514 21be e8ee 773d 2217 283d
000000d0: 2b3d 28bd 53e5 68bd 2f27 7fbc 7dbb 40bb
000000e0: 79fb 98bd 2362 bfbd 337e 043d 2169 97bd
000000f0: e611 77bd 033c a3bd 7ec1 dcbd fcd6 61bd
00000100: a3d8 833d b9a7 133b 7d9d 84bd 9834 94bc
00000110: 03a1 c0bd 4cd5 4abd c904 7dbd 4167 56bd
00000120: c920 043c f13a a1bc b9ac ffbb 9e08 0b3c
00000130: b947 eabd 0ef3 a63d 1be6 47bc 0552 d83d
00000140: 4a9b 2abc 9270 a03d 46bc 59bc 28db 0c3c
00000150: 7734 a1bd aaa5 60bd fd52 543d fcb2 a7bd
00000160: 1951 d2bd 9e6a 013c 33e7 6abd 2e40 cdbd
00000170: 1781 4e3d f255 d2bd 3bea b13d cf9e b4bd
00000180: 9dbd 6dbd 9fc0 8d3c 73b6 fc3a a3ba f33d
00000190: a270 263c a9b9 abbc dfcc 35bd 288e 16be
000001a0: e614 773d 739e 68bb 0efb b9bc fcb0 533d
000001b0: aa0a 70bd c737 f2bc bee3 96bd 7975 29bd
000001c0: 4fa4 cebb 1d28 eb3c 956f 97bc 23b5 67bd
000001d0: c76c de3c c1c4 05be 71a6 9bbd 4028 f3bd
000001e0: 6de5 74bd cc3f c7bc 433d eabc 8f30 a73d
000001f0: c54d 78bd ebef 28bc 4d9c 943d 1f33 8e3c
00000200: 8584 2ebc 188e b9bd 2501 88bd 878c 91bc
00000210: bff0 9f3c 6263 a0bd 9da3 ae3a d43a e8bb
00000220: 2df9 8fbc 8dac 99bd d68b 65bd dab6 403d
00000230: b067 83bd da79 243e 9eb9 7f3d df94 bcbd
00000240: 7cd8 dc3c 461c f1bd 069f efbc c9ef 303c
00000250: 26f7 37bc 838a 19bd c7a1 e73d 1292 0dbb
00000260: 943c 933d c303 de3d 9982 bfbc 1824 29bd
00000270: ecb9 febc 6582 033d 90bf a2bd 16d9 eabd
00000280: 936e 52bd 0c69 82bc cff4 c5bc 4a36 e2bd
00000290: 5e14 77bd ca71 03be b686 8abd 7c1c 07bd
000002a0: def2 2c3d 9188 90bd 1367 a7bd e91a 91bc
000002b0: e65a 58bb 0a4a 19be e79d 82bb d6fb c1bd
000002c0: f0e6 d7bc bf74 163e 7b3f 2abd e35b 563a
000002d0: 3020 e73c 03dc 223d dd31 82bd dc8e 463c
000002e0: 1068 b93d 07e4 a4bd 3bc0 b2bd 748f 39bd
000002f0: 10cf 703d 4b66 97bd b1e4 97bd 82e7 88bc
00000300: be9d 8abd 0e80 9bbd 5d24 733d a9be 203e
00000310: 754c e4bc a95b b83c 1a3c d33d 0c10 65bd
00000320: 39f7 73bd 7161 3d3d afbe 753d 0052 e53d
00000330: 82d4 ffbd 7e0c 723c e646 ffbd 3664 4a3b
00000340: 0bec c6bb 4fef 873d 47ed 11bd 4e67 35be
00000350: d832 243d fdc0 aebc dda6 183e 5461 3d3d
00000360: 0f94 b83d f0d8 a2bd b425 7cbd 5bf7 f0bd
00000370: 2c04 c03c 2ba9 823d ae83 40bd ca93 b23c
00000380: 17bd 913c f5f1 9b3d bbcc 0dbd 940b 88bc
00000390: 4eab 663d 2dec 72bd f9a1 7c3d 473c 433d
000003a0: b916 4f3d 9caf c2bc 0293 323d 4aeb cbbc
000003b0: 7bf3 9d3d 96de 91bd a6f7 853c 6478 2bbe
000003c0: 01f6 883d 7351 67bd fd8a 3a3d ffbd 5d3d
000003d0: a41a f8ba 5fec 913a b981 afbd 3f28 6d3c
000003e0: 69e8 9cbd 030a e5bd 0609 aabd 3db4 aa3d
000003f0: 3483 5cbd cf38 d23d 2017 99bb ba1f debc

fc2.b f4 [10]
0.036439765 -0.011190178 -0.00071051344 0.04435132 -0.03256227 -0.032778632 -0.017920481 0.028217327
-0.015661808 0.019558717
00000000: dd41 153d 0257 37bc c041 3aba bba9 353d
00000010: 0460 05bd e342 06bd f9cd 92bc 0628 e73c
00000020: 314d 80bc 9a39 a03c
